model/model.tflite (tflite, 244432 bytes, 6 tensors)

sequential/dense/BiasAdd/ReadVariableOp/resource f4 [26]
00000000: 0f4a 1c3f 72bc bfbd 8ca5 673e d579 91be
00000010: bb6b 39be 449f 22be 0981 26be 9712 0cbe
00000020: abde 743e e5e5 dc3d 685e 0bbf ecce 253f
00000030: 81f0 81be 5158 d4bd 09f7 e33e b257 043f
00000040: 21ed c9bd 1495 f9be 8cb4 19be 6a56 983e
00000050: e357 96be 9988 a5bd 815e abbe 580e eebe
00000060: f9ad 0a3f 1f39 54be
0.61050504 -0.09362115 0.22621745 -0.28413263 -0.18107502 -0.15881068 -0.1626016 -0.13678966
0.23913066 0.107860364 -0.5444093 0.6476886 -0.25378802 -0.103684075 0.4452441 0.5169631
-0.09859682 -0.4874655 -0.1501028 0.2975343 -0.29363927 -0.080826946 -0.33470538 -0.46495318
0.5417171 -0.20724915

sequential/conv2d_1/BiasAdd/ReadVariableOp/resource f4 [64]
00000000: 9192 27be 0ef0 3bbc 72eb dfbd b3bc 813b
00000010: 9d8a 5ebc 5d60 283d 0590 f2bc 3c2b ba3d
00000020: 1ef3 88bd 8b5b 183d 1b06 7e3c 7c97 aebd
00000030: f579 483b 2297 c83c 475b ad3c 69c8 c53d
00000040: 39c5 0dbe 7fce fdbd db8e d5bd 27d7 afbe
00000050: 8010 09be 15dd 54be 7f73 97bc 01f9 5abe
00000060: efdd a93d 706f d6bd a9b5 843c 8845 4fbc
00000070: 1565 723d 03c4 1c3d 2f8f 04be 0ea4 25be
00000080: 996c 81bd 0e9f 233c 7530 11bd f98e 04bd
00000090: b515 a3be f80e ecbb 2e98 1a3b cf42 d0bd
000000a0: 8886 0ebc 67d8 29be 6d6f 0abe 084a bcbd
000000b0: 804d 82be 9388 48be adc4 ec3c c35e b8bd
000000c0: 083c 2dbd e1bc 13be 525a 28bd c58f 69be
000000d0: 5dd4 e0bd a486 db3b 808a 9d3d ac80 0abe
000000e0: 87c2 233c a53e a2bd 9215 e8bd abbb 343d
000000f0: 4f28 0bbe 9f0a 3a3e f985 95bd 0d0d 343e
-0.16364504 -0.011470808 -0.109335795 0.0039592623 -0.013582853 0.041107524 -0.02960969 0.090902776
-0.06686996 0.037196677 0.015504385 -0.08524987 0.003059027 0.024486128 0.021161688 0.09657366
-0.13844766 -0.12392902 -0.10427638 -0.34343836 -0.133852 -0.20787461 -0.01848769 -0.2138405
0.082942836 -0.10470474 0.016199904 -0.012650855 0.05917843 0.03827287 -0.12945245 -0.16175863
-0.063195415 0.009986652 -0.035446603 -0.03236291 -0.318525 -0.007203933 0.0023589241 -0.10168993
-0.008699067 -0.16586457 -0.13519068 -0.09193808 -0.25449753 -0.19583349 0.028902376 -0.09002449
-0.04229358 -0.1442752 -0.04110176 -0.2280875 -0.10978005 0.0066994 0.076924324 -0.13525647
0.009995109 -0.07922105 -0.11332239 0.044124287 -0.13589595 0.18168114 -0.07300944 0.17583103

sequential/conv2d/BiasAdd/ReadVariableOp/resource f4 [32]
00000000: 61e5 d5bc b211 84bc b0b9 92bb 77b8 15bc
00000010: 2a65 3abc 7de5 5abd 1c6f f2b9 d591 3a3e
00000020: d6d7 6cbe 4e3d febd 8496 743a 3274 21be
00000030: c1e3 5abd e7c3 4a3e da45 acbe 0ce9 16bd
00000040: 4ee9 83be e504 bfbd cae4 9cbb a471 12bd
00000050: d1c6 96bb a881 cdbd 251f afbb 42e6 54bb
00000060: 97a3 af3d 1d27 d5be 3c3e a9be 3368 0cbc
00000070: 4ee4 38bc 0fdd 4cbd 5b3f 2bbc 2aeb 22bd
-0.026110353 -0.016121719 -0.004477702 -0.009138218 -0.011376658 -0.053441513 -0.0004624062 0.18219693
-0.2312921 -0.12414037 0.000933029 -0.15766981 -0.05343986 0.19801293 -0.33647043 -0.036843345
-0.25763935 -0.093271054 -0.004788016 -0.035752907 -0.0046013375 -0.100344956 -0.005344289 -0.0032485877
0.08576124 -0.41631404 -0.33055294 -0.008569765 -0.011284901 -0.050015505 -0.010452117 -0.03977505

sequential/dense/MatMul f4 [26, 1600]
00000000: d91c 33bf b3bc bbbd 1f83 34be 3c65 fabd
00000010: f330 a3be 2779 a5bf 6aa5 17bf b75a ddbd
00000020: e7b5 24bd 2cc2 cebe 0b9d 62be c9e2 00bf
00000030: 2ad9 8dbd c11b d0be aa89 553d 33dc 21bf
00000040: 747e 10bf a9ea b1be a4a3 9cbe fbd5 d5bd
00000050: 945a 69be b97b c8be c515 00bf 32d0 56bd
00000060: 76ba 83be 2eb9 54be 1346 d9bd 84a1 47be
00000070: e860 cabd ab84 50be 930e 3a3c 5d27 cc3b
00000080: 73c1 11bf 51b0 5d3e 2aca 96be f46b 583e
00000090: eb8a b23c 590f 97bd 2124 23bf 2ece 1cbf
000000a0: 9e94 72bd 75c6 31bf 9264 f1bc 6b97 a93c
000000b0: 5f9d e3bd 5d65 c5bd 10e5 0fbf 6f32 40bf
000000c0: f7db d7be 3bef e1be 3e30 25be 2c61 2fbe
000000d0: 53d8 8bbe 30f2 50be 6f67 5ebf b38d 59bf
000000e0: fe75 8ebd 64f5 3cbe 8695 1ebf be64 f3bd
000000f0: 1ed5 8bbe 5bb5 4ebd 8a4b 57bd 9938 8e3c
00000100: f9ad 1b3e 5949 143d f3a7 a9bd 4b96 2f3e
00000110: bdca 1bbf a07b 0abe 8587 f7ba f01e 8bbe
00000120: c905 fd3d 3bba dfbd bbcb d4be 9447 50be
00000130: 7595 41bf d806 afbf 6517 c3bd 5b4d 1dbe
00000140: b094 ffbe b301 5fbe e9cd e6bc fae9 eebd
00000150: f22b 7cbd 9fd0 eabe ed61 b6be 17a1 e9be
00000160: b736 153e 98da bbbb 104e de3e aaeb 2b3e
00000170: 153a 52be d218 863c 6be0 763e af1d febe
00000180: d742 4bbf 8b21 28bf 5918 fabd e8ab 2abf
00000190: f13c dbbe 4c6b 0e3c 4a72 04bf 60e0 0b3e
000001a0: 30c8 cdbd 9fef cdbe 7388 8ebe 5497 f53d
000001b0: bb09 50be 3cc9 623e 4641 983d c2a2 d6be
000001c0: cb79 b0bf c9fd 8dbe fe48 80be 04d6 473e
000001d0: 1a3d eebd 5aff adbe 41ed 3abf 58c6 363e
000001e0: 61da c9bd ca56 3cbe af1a 4dbe 546b 1bbf
000001f0: d605 3fbd bf15 fcbd bc4c 41be 414f 4d3d
00000200: 0c84 4f3e d24f a6bc 4b20 10bd 6b0f 923e
00000210: c6ca 0a3e 1f14 3fbd aaa5 52be ef79 3bbe
00000220: 078e 83bc a8fa 753e 7e5b 25bf 2488 83be
00000230: e499 37bf d526 553e 9cd7 b8be 4067 dcbc
00000240: 3b01 d3be 3dd1 93bd 8a02 12be 26ce a2be
00000250: f5f9 8ebd 0995 0abe bce6 e7be 2b6a c0be
00000260: 7c66 e4bd b335 793d 9830 0e3d abe0 853c
00000270: 92be 33bd 2496 5a3e d661 803e 7f24 7f3b
00000280: f773 b8be 76ea 7abb c029 4c3d 1b3a 35bf
00000290: c6c4 92be 63a3 443e 5ba8 aabe 9e6b 5b3e
000002a0: 46ab 963c c975 2c3e fce0 0cbf 26c8 4e3e
000002b0: 7989 c73b 3302 e9bd 52c5 b9be 61b1 413d
000002c0: a8cc 4cbf 60cf b1bc 77f2 0c3c 3aa0 b3be
000002d0: e71e 16be fe4e f4bd 26f1 713d 5bae 133e
000002e0: 71bb f93c 02b3 0bbe 4fab 84be 1244 823d
000002f0: 6bb8 0fbd d034 aebc 34e2 b93c b609 813c
00000300: affc 3a3d b48d 99bd b9a6 88bc 984d a5be
00000310: 3723 30be 433b 6a3d 8de3 59be 5551 c43d
00000320: 047d 8bbc 3fdc d93d 24cb e2be a778 ccbd
00000330: 27a3 7dbe 9eaf 8e3e bd88 b3bf 36d0 523d
00000340: 9231 01bf a788 8d3d 635c b1bd edf4 70bf
00000350: 4b4c 8dbd 1f99 023e 9260 92be 7398 d8be
00000360: e20a 91be 664e 38bd 3f4a 07bf f5a4 1f3e
00000370: 5216 f03e 9fb8 4a3d 7121 b33e 6a7e 8bbd
00000380: ae59 40be 46de 30be 9425 58bb 1e57 8abe
00000390: 6814 2bbf aaa3 10be a95c b33d 4dd5 393e
000003a0: 0793 5fbe 4b9c cfbd 2168 83bd 7bbf a63d
000003b0: 32e9 c7bd 1598 0a3d 2310 35be e0dc 13bc
000003c0: c812 85bf fb4a 79bd 5a1f b53d 75bd 9cbf
000003d0: efbf afbd 8e73 43bd 0740 4f3e a799 8ebd
000003e0: 16fb 043e 6fcc f0be 7e18 06bf 29a3 903d
000003f0: 9dff b43c 2299 a5be 8147 86be f877 543d
-0.69965893 -0.09166851 -0.17628144 -0.1222634 -0.31873283 -1.2927598 -0.59236777 -0.10808318
-0.040212538 -0.40382516 -0.2213022 -0.50346047 -0.069261864 -0.40646175 0.05213324 -0.6322662
-0.5644295 -0.34749344 -0.30593598 -0.10441204 -0.22788459 -0.39156893 -0.5003322 -0.052444644
-0.25728196 -0.20773765 -0.10609069 -0.19495207 -0.09881765 -0.20363109 0.011356014 0.0062302784
-0.56935805 0.2164929 -0.29451114 0.21134931 0.021794757 -0.07375974 -0.63727003 -0.61252105
-0.059223764 -0.69443446 -0.029466901 0.020702085 -0.111140005 -0.09638474 -0.56208897 -0.75076956
-0.42160007 -0.4412783 -0.16131684 -0.17126912 -0.2731348 -0.20404887 -0.8687658 -0.8498184
-0.06956099 -0.18452984 -0.61946905 -0.118844494 -0.27311033 -0.050465923 -0.052562274 0.017360972
0.15203084 0.036202762 -0.08283987 0.17147176 -0.6085623 -0.13523722 -0.0018884992 -0.2717204
0.12354619 -0.109241925 -0.41561684 -0.20339805 -0.7561868 -1.3673964 -0.095259465 -0.1536154
-0.49918127 -0.21777992 -0.028174357 -0.11665721 -0.061565347 -0.4586229 -0.35621586 -0.45630714
0.14571653 -0.0057328455 0.43418932 0.16789117 -0.20529969 0.016369257 0.24109046 -0.49632022
-0.79398865 -0.6567618 -0.12211675 -0.6666856 -0.42819932 0.008692574 -0.5173689 0.13659811
-0.10047948 -0.4022188 -0.27838477 0.11991754 -0.20316212 0.22147077 0.07434325 -0.4192105
-1.3787168 -0.27732685 -0.2505569 0.19515234 -0.11632748 -0.3398388 -0.7301827 0.178491
-0.098561056 -0.18392482 -0.2002971 -0.60710645 -0.046636425 -0.12308835 -0.18876928 0.05012441
0.20265216 -0.020301733 -0.035187047 0.28527388 0.13553914 -0.04665005 -0.20571008 -0.18308233
-0.016058935 0.24021399 -0.6459273 -0.25689805 -0.71719193 0.20815594 -0.36101997 -0.026904702
-0.41211876 -0.072176434 -0.14258781 -0.31797904 -0.06981269 -0.13533415 -0.45293224 -0.37581
-0.1115236 0.060842227 0.03471431 0.016342482 -0.043882914 0.21346337 0.25074643 0.0038931665
-0.36025974 -0.0038286722 0.049844503 -0.70791787 -0.2866575 0.19202952 -0.3333157 0.21427771
0.018392216 0.16841806 -0.550308 0.20193538 0.006089386 -0.113773726 -0.36283356 0.047288302
-0.7999978 -0.02170533 0.00860273 -0.3508318 -0.14660226 -0.11929129 0.059067868 0.1442198
0.030484887 -0.13642505 -0.25911948 0.0636064 -0.035087984 -0.021265417 0.02269087 0.0157517
0.045651134 -0.07497731 -0.016681062 -0.32285762 -0.17200933 0.057185423 -0.2127821 0.09585825
-0.017027386 0.10637712 -0.4429561 -0.0998395 -0.24769269 0.2786836 -1.4026104 0.051468097
-0.50466263 0.0691083 -0.086601995 -0.9412373 -0.06899317 0.12753724 -0.28589302 -0.4230381
-0.28328615 -0.04499664 -0.52847666 0.1559027 0.4689203 0.049492475 0.3498645 -0.06811221
-0.1878421 -0.1727229 -0.0032981383 -0.2701959 -0.6682801 -0.14124933 0.08757908 0.18147774
-0.2183343 -0.101372324 -0.064163454 0.08141991 -0.09761275 0.033836443 -0.17681937 -0.009024829
-1.0396357 -0.060862523 0.088438705 -1.2245318 -0.0858153 -0.047717623 0.20239268 -0.069629006
0.12986407 -0.4703097 -0.5238112 0.0706237 0.022094542 -0.32343394 -0.26226428 0.051872224

sequential/conv2d/Conv2D f4 [32, 3, 3, 1]
00000000: 377d 433d 0fa9 5ebe 457b f6be 2e07 44bd
00000010: bd1b aabd 0d22 ab3c d14b d33d aca5 a83e
00000020: 6620 903e b36d 603b b148 40be f217 43be
00000030: 4407 17bf e542 debc 9802 fa3d eb66 1dbd
00000040: 12cc 653e 14af 9d3e 6ac1 023e e933 6a3e
00000050: af50 c03e eeae c5be c57e 8a3d 19c7 7dbe
00000060: e750 a1be 6e84 b5be a46c 90be 8ccf ac3d
00000070: b7df 7e3e 342d 1dbd 0cfe c33e 407f 2b3e
00000080: 2598 a9be a9d7 a7bd 67ad d0be ace3 32be
00000090: 3569 333e 9fa6 86be 94ae efbe c379 e03d
000000a0: d139 8f3e 913f f3be 9aee 6f3e 5081 ec3c
000000b0: bb02 4abf 153e a33b a895 543d bdcd 723e
000000c0: f4a8 273e df8f 5e3e 90eb f93c c819 8dbe
000000d0: 57cd 94be 16bd bbbe d9db 4abf c4e6 bc3e
000000e0: 781a 5cbe 66d2 af3d c2b3 343f 2013 54be
000000f0: 641d a7be cc27 8bbe 27a1 46bd 5045 62bf
00000100: 19f5 9bbf e1d7 a3bf 9e48 30be 5161 4f3e
00000110: 4d88 93be fa16 6f3e 025b 913e 894b debd
00000120: 5d09 ee3d 3ad9 eabb afaa 623e 1f9a 793b
00000130: 8801 8ebd f993 23bd 57ff f53d 4ef0 b23d
00000140: e170 183e ed1a 45be c948 7abe 585e 9abd
00000150: c239 37be 93f8 663d e1a9 873e dd8a 013e
00000160: 50f6 513e 8d00 b13d aa33 fc3e 16c0 943e
00000170: aa9f cbbe 2ad3 593e a4c2 983e e569 4cbf
00000180: bd34 51bf c4d0 36bf c7de 0bbf 3d8c 1a3e
00000190: c6a1 4c3d 4e95 b0be 1f55 5f3d bfef 2ebe
000001a0: 78af 3a3e 75a6 293e 2395 f1bd 79b9 643e
000001b0: d04d 363e 6ad2 3f3d 65c8 01bf f322 2cbe
000001c0: 4512 0e3f 819c bbbe 2908 e9be 776c a43e
000001d0: 067d be3d 65bb 2bbe 623b a5bf 6515 39bf
000001e0: ad5b 64bf 8871 44be 6f75 b9bd 7b66 55bf
000001f0: ab5d 823e cea2 063f 5d0e b1bd 0dd8 143e
00000200: 77e1 8d3e e86c d43e e213 2bbe 3d00 263e
00000210: e658 e6be fdb9 1abf e0dd 6f3e 645a 55be
00000220: 6a9e fbbb 813b a23e e9b2 cabe 65ee 2e3c
00000230: 602c 433e 67bc e53d ff93 573c 789e 8ebe
00000240: 427c 923e bdaa 863e cb1d 9fbd d16e 93bd
00000250: 9070 84be e5c9 223e 48cd febe 2c15 a33e
00000260: 918e 0a3e 1381 c1be 994e 20bb c9b9 423e
00000270: 3ff1 0b3e 6147 013f db8a 80be f101 4d3e
00000280: 7748 2e3d e942 09bf 614f 72be 5357 4b3e
00000290: 5aef 8f3e 3c16 febe 3e48 053d 741e 013e
000002a0: e79e a5be 12d0 d0be 608a 413d 7151 80be
000002b0: 5c8f b4be c48a c5be c1fd ac3e 4a0d 9f3e
000002c0: 1fe5 5a3e 446a a73d 4d2b abbe ea71 cf3d
000002d0: cff5 8b3e 3354 c23e 1573 0ebc e00a 84be
000002e0: c606 0ebf db44 00bf 6082 45be cc3b 953e
000002f0: 3623 b93e 8c8b 02bf 86ab d9be a891 5d3e
00000300: c39a ed3e c461 cf3e 2a41 7bbc 3f9d 18be
00000310: f24c 4ebd f3b9 99be 3509 713e 9948 5b3e
00000320: 680f 123e 20c1 54bd 1b37 a8bd b8d8 cf3d
00000330: f9f3 4abe 28b2 7abe e43e 0ebe 998b cfbd
00000340: b103 ed3d ad98 6cbe 9006 1bbd 0d51 88be
00000350: 2024 50be 3581 ba3e b8cd 5b3e 5254 343d
00000360: 72a1 a0bf d48a 0abf 8257 353e 96be 57bf
00000370: 538e 64bd 3bce 563e 8718 e6be a2bc 06be
00000380: 9335 473d 4b00 f73d e767 9a3d 7a33 603d
00000390: f0dd ae3e 38aa 9a3d 684d 883e 5a2a 75be
000003a0: d5d6 abbe a9f3 2e3e 2547 c1bd 4dd3 2b3c
000003b0: 7b9c ab3d 0003 3c3d 5ec3 1f3b bedc 663d
000003c0: 96ce ab3d fce9 16bd 16c7 6d3d 03b5 febe
000003d0: c46a 3bbf 0935 a2be 2195 8e3e 9579 9d3e
000003e0: 4647 2abf bb43 d83e 2979 2a3e 0a67 8cbe
000003f0: 3eaa 8e3d 725f 1b3d e7c5 d9ba 8921 a0be
0.047726836 -0.21744178 -0.48140922 -0.04785841 -0.08306072 0.02089026 0.10317195 0.32938898
0.28149718 0.0034245073 -0.1877773 -0.19052103 -0.5899546 -0.027131507 0.12207526 -0.03842823
0.22441128 0.30797637 0.12769094 0.22871365 0.37561557 -0.38610023 0.067624606 -0.24782981
-0.31507036 -0.35452598 -0.28207886 0.08438024 0.24890028 -0.038373187 0.3827976 0.16747761
-0.3312389 -0.08195431 -0.40757295 -0.17469662 0.17520602 -0.26298997 -0.4681288 0.10960724
0.27973798 -0.47509435 0.23430863 0.028870255 -0.78910416 0.004981766 0.051900536 0.23711295
0.16373044 0.2173457 0.030507833 -0.27558732 -0.29062912 -0.366677 -0.7924171 0.3689481
-0.21494472 0.08585052 0.7058679 -0.2071042 -0.3263961 -0.271788 -0.04849353 -0.8838701
-1.2184173 -1.2800256 -0.17215201 0.20251967 -0.28814927 0.23348609 0.28389746 -0.10854251
0.1162288 -0.0071670087 0.22135423 0.0038086248 -0.06933886 -0.03993604 0.12011593 0.08737241
0.1488681 -0.19248553 -0.24441828 -0.07537526 -0.17893127 0.056389403 0.26496795 0.12650628
0.20504117 0.08642683 0.49258167 0.290528 -0.39770252 0.21271959 0.29836 -0.7984908
-0.817211 -0.714123 -0.54636806 0.15092559 0.049958967 -0.3448891 0.054524537 -0.17083643
0.18230999 0.16567405 -0.11796024 0.22336377 0.1780312 0.046831526 -0.506964 -0.16810207
0.5549663 -0.3664284 -0.45514038 0.32114002 0.0930119 -0.16770704 -1.2908747 -0.7229827
-0.89202386 -0.19183934 -0.09055602 -0.833595 0.25462088 0.5259217 -0.08645318 0.14535542
0.2771108 0.4148934 -0.16706803 0.16211028 -0.449897 -0.60440046 0.23424482 -0.20835263
-0.0076787965 0.31686023 -0.39589623 0.010676955 0.19059896 0.112175755 0.013157844 -0.27855277
0.28610426 0.26302138 -0.077693544 -0.07198871 -0.25867128 0.15897329 -0.49765992 0.3185209
0.13530947 -0.37793788 -0.002446091 0.19016184 0.13666247 0.5049954 -0.25105938 0.20020272
0.042549577 -0.5361772 -0.23663093 0.1985753 0.28112298 -0.49626338 0.0325396 0.12609273
-0.32347795 -0.40783745 0.047251105 -0.25062135 -0.35265625 -0.38582432 0.3378735 0.31064826
0.21376465 0.081745654 -0.33431473 0.10129149 0.27335975 0.37954864 -0.00869443 -0.25789547
-0.55479085 -0.50105065 -0.19288015 0.29147184 0.36159676 -0.5099418 -0.42513674 0.21637595
0.46407136 0.40504277 -0.015335361 -0.14903735 -0.05036635 -0.3002468 0.23538668 0.21414413
0.1426369 -0.05194199 -0.082136355 0.10148758 -0.1981963 -0.24482024 -0.13891178 -0.10134048
0.1157297 -0.23105116 -0.037848055 -0.26624337 -0.2032628 0.36426702 0.21465194 0.044025727
-1.2549269 -0.54118085 0.17709163 -0.84275186 -0.055799793 0.20977108 -0.44940588 -0.13157895
0.048635077 0.12060603 0.07539349 0.054736592 0.341537 0.07551998 0.26621556 -0.23941937
-0.3356234 0.17085136 -0.09437398 0.01048739 0.08379456 0.0459013 0.0024377923 0.05636286
0.083890125 -0.03684424 0.05805119 -0.49747476 -0.73209786 -0.31681088 0.2784815 0.30756822
-0.66515005 0.42239174 0.16647781 -0.27422363 0.06966065 0.03793282 -0.0016614766 -0.31275585

sequential/conv2d_1/Conv2D f4 [64, 3, 3, 32]
00000000: 9919 a2bd b0fd 803e 4107 83bf c722 a63e
00000010: c117 9cbe af82 733e dace 993e 000c 8abe
00000020: fb47 183e fee7 643d 800b 683d f02a 89bd
00000030: b12e 76be 7a47 c3bc df11 8bbe 489e dcbd
00000040: 9a1d c0be 6233 0a3e 0943 18bf f21b f53c
00000050: 4208 693e 9773 0b3e c44d a7be df4e 863d
00000060: 1bab 93be 1a32 a6be 2b3e 183e 0d66 24bd
00000070: 18f5 4dbe d271 e4bd 509b 343e 2c40 27be
00000080: 8aa6 efbd c1af 22be ee18 83bb 6a76 3e3d
00000090: 2e91 ee3c 6460 b1bd bca2 6d3e 3a6b 1abe
000000a0: 055b 3b3e e8bc 94b9 f2ef 9b3d dc8c 16be
000000b0: 59da aebd e085 f2bd 19a1 31bd cfa5 90bd
000000c0: 6829 f93d 8317 cebd ab84 e4be 316b b93b
000000d0: e489 ae3e 14e7 1c3e b767 d1bd a0fb 2cbe
000000e0: 0a40 dfbe 4bcd dfbc 6bf1 0c3e 688c b9bd
000000f0: 457a 21be c89a 173e 3928 bc3e 6c93 5fbe
00000100: 1391 3bbe b838 f13d e591 c1bc 31de 9ebd
00000110: 3ae1 a33d ed85 67be 8e2b 1e3f b663 71be
00000120: 7f01 243d b14a 1abe ae8b 18be 98b3 bc3c
00000130: ab3e 18be 62a1 6cbe 0843 2d3d 6af7 793e
00000140: 0a26 93bd 2618 623d 56de de3e cc15 3fbd
00000150: 6326 17be f5bf 9d3e 42cd c2bc 256a ad3d
00000160: 851e fbbd c33b 183d ee1c ca3d b7c1 c5bc
00000170: 3ef0 763e 166b 453e 7ce7 0e36 76a7 653e
00000180: 6b36 173d ef01 9c3d 417c 0d3e 3362 3f3e
00000190: c8ca 8ebd 71db 053e 083e 8c3e 99fa 3fbf
000001a0: d9a3 db3d 5d84 a13d c9d5 123e 2a92 3ebb
000001b0: 2f39 febd 6e70 ccbe b58f 09be 8ffc 0bbe
000001c0: 9953 ccbe f98a 593e 7a04 aabe 7ac8 dbbe
000001d0: 2467 2e3e 628e bf3d 5cc6 a83d 2491 a63d
000001e0: b1f2 26bf 34a8 2bbe aaf7 dcbb 182a cabe
000001f0: 1a5e dcbe 67b8 74be f170 afbe f60c 0ebe
00000200: 3684 253d 09fd 86bf 29b2 4b3e 1e66 d2bd
00000210: e34f 98be 2817 bd3d 5648 ffbc 070c 8ebe
00000220: d25d dbbc f6df 4dbf 6bc6 0fbc ee20 70bd
00000230: 53cd 793e ddb7 49bf 8ca4 96bd ab5e bb3d
00000240: f2dd b8bc 7852 40be 4abc 27be f13d 28be
00000250: 2e5b 423c 0d56 8f3d 9964 803e 976e 9f3e
00000260: 80ae 42be e216 0b3e de6e 9b3a a917 a83e
00000270: af7c ad3d 7d3a a8bd 6ce8 b1bd 298a 11be
00000280: 9e35 483e 2571 0f3e 70b7 d73e 7958 d53c
00000290: ccf4 55bd a25c 813e 36ea 2e3c 8524 aebd
000002a0: 485d 03be de37 f4bd ecbe 29be e0c9 843e
000002b0: 2e03 4f3e 1291 03bf 45ef 3ebc 711e f33e
000002c0: 7f05 fb3d 2343 08be 799d d53e dfe9 813e
000002d0: bab3 6f3b 16a3 833d 7635 743e d22e e13e
000002e0: e6ef c6bc 3bdf 913e b32b d5bd 9966 833e
000002f0: cfb7 973e 8ad0 dd3d 147c 9fbc 0ad5 6b3e
00000300: 5859 98bd 48ef 69bc fd32 21be f301 393e
00000310: 03d6 a43e 8b82 91be 462d b83d 84f7 00bf
00000320: b47a 94bd 2351 893d 0e6f 343c 359a a1bc
00000330: e4dd 303e ed3b 39bf 8a54 913d c6d0 0ebd
00000340: 35b7 09be 786f c93e e6be d53c a5ca c63d
00000350: de47 7cbe 8e1e 8ebe 9274 333c 0ab7 cb3e
00000360: 0846 c8be c59a 7dbd 0615 eabc a59e 733e
00000370: 8d61 583e 08f2 fcbd 7e59 9a3b b746 223f
00000380: ca94 243e 7f66 98be e4e6 19bd b5dc fabd
00000390: 4bc9 f73d 744d 4ebd bbd3 4b3d 0aa4 93be
000003a0: 8473 24be 2b90 cbbe 5e0d f5be 5f29 75bd
000003b0: 7286 5c3e 0a82 06bf 3f6e ccbe 626e 703e
000003c0: 64f5 5b3e d437 6abd 5dc1 973e 485d 49be
000003d0: d251 a5be d978 79be f936 783e 81f9 a43e
000003e0: 0a7a 9bbe 2d12 4ebd 0eb2 dabe 99f4 033e
000003f0: 8370 043f 0159 b93c 2a7f 9abe d29a 933e
-0.079150386 0.25193548 -1.0236589 0.32448408 -0.30486873 0.2378032 0.30040628 -0.2696228
0.14871208 0.055885307 0.056651592 -0.06697643 -0.24041249 -0.023837794 -0.27162072 -0.10772377
-0.37522584 0.13496163 -0.5947729 0.029920552 0.22757056 0.13618313 -0.32676518 0.06558012
-0.2884148 -0.324601 0.14867465 -0.040136386 -0.20113027 -0.11154522 0.17637372 -0.16333073
-0.11701687 -0.15887357 -0.0040007746 0.046499647 0.029121961 -0.08660963 0.2320661 -0.15079966
0.1829644 -0.00028369506 0.07614125 -0.14702171 -0.0853774 -0.11841941 -0.043366525 -0.070628755
0.12166101 -0.10063078 -0.44632468 0.00565853 0.34089577 0.15322524 -0.1022486 -0.16892862
-0.43603545 -0.027319571 0.13763969 -0.090599835 -0.15769298 0.14805138 0.36749437 -0.2183358
-0.1831706 0.11778396 -0.023629138 -0.077572234 0.08001943 -0.22609682 0.6178521 -0.23573193
0.04004049 -0.15067555 -0.14897034 0.023034856 -0.14867656 -0.23108438 0.042300254 0.24410787
-0.0718499 0.05519881 0.43529004 -0.046651646 -0.14760737 0.30810514 -0.023779515 0.08467511
-0.122616805 0.03716637 0.09868799 -0.024140222 0.24115083 0.19279131 2.129439e-06 0.22427163
0.03691713 0.07617556 0.1381693 0.18689804 -0.06972271 0.13071992 0.27391076 -0.74991757
0.10724611 0.078865744 0.14339365 -0.002907882 -0.12413251 -0.39929527 -0.13433726 -0.13670562
-0.3990753 0.2124442 -0.3320654 -0.4292639 0.17031533 0.09353329 0.08240959 0.08133152
-0.6521407 -0.16763383 -0.006743391 -0.3948524 -0.43040544 -0.23898469 -0.34265855 -0.13872132
0.04040929 -1.054597 0.19892181 -0.102733836 -0.2974845 0.09232932 -0.031162422 -0.2774355
-0.026778135 -0.8041986 -0.008775334 -0.058625154 0.24394731 -0.7879618 -0.073556036 0.09148916
-0.02256677 -0.1878146 -0.1638042 -0.16429879 0.011862559 0.06998835 0.2507675 0.3113906
-0.19011879 0.13582948 0.0011858603 0.3283055 0.08471047 -0.08214281 -0.08686909 -0.1421286
0.19551703 0.14008005 0.4213214 0.026043164 -0.05223541 0.25265986 0.010675957 -0.08503059
-0.12828553 -0.11924718 -0.16576737 0.25935268 0.20216057 -0.51393235 -0.011653726 0.47484162
0.12256908 -0.1330686 0.41721705 0.25373742 0.0036575631 0.064275905 0.23848519 0.43981034
-0.024284314 0.28490624 -0.104087256 0.25664213 0.29632422 0.10830791 -0.019468345 0.23030487
-0.07438916 -0.0142782405 -0.15742107 0.1806715 0.32194528 -0.2841991 0.0899301 -0.5037768
-0.07249966 0.06704929 0.011012806 -0.019726852 0.17272145 -0.72357064 0.07096203 -0.03486707
-0.13448794 0.39342856 0.026092004 0.0970662 -0.2463679 -0.27757686 0.0109530855 0.39788085
-0.3911593 -0.061915178 -0.028574478 0.23790987 0.21130963 -0.12350851 0.0047103753 0.6338915
0.16072384 -0.29765698 -0.03757371 -0.12249128 0.120989405 -0.050366834 0.04976247 -0.2883609
-0.1605969 -0.3975843 -0.4786176 -0.059853908 0.21535662 -0.52542174 -0.3992786 0.23479608
0.21480328 -0.057182148 0.29639712 -0.1966449 -0.32288986 -0.24362506 0.2423972 0.32221606
-0.30366546 -0.050310303 -0.4271397 0.12886275 0.5173418 0.022625448 -0.30175143 0.28829056
